Model: "sequential"
_________________________________________________________________
Layer (type)                 Output Shape              Param #   
=================================================================
conv2d (Conv2D)              (None, 26, 26, 128)       1280      
_________________________________________________________________
resnet_identity_block (Resne (None, 26, 26, 128)       296192    
_________________________________________________________________
resnet_identity_block_1 (Res (None, 26, 26, 128)       296192    
_________________________________________________________________
resnet_identity_block_2 (Res (None, 26, 26, 128)       296192    
_________________________________________________________________
conv2d_7 (Conv2D)            (None, 26, 26, 64)        73792     
_________________________________________________________________
resnet_identity_block_3 (Res (None, 26, 26, 64)        74368     
_________________________________________________________________
resnet_identity_block_4 (Res (None, 26, 26, 64)        74368     
_________________________________________________________________
resnet_identity_block_5 (Res (None, 26, 26, 64)        74368     
_________________________________________________________________
batch_normalization_12 (Batc (None, 26, 26, 64)        256       
_________________________________________________________________
activation (Activation)      (None, 26, 26, 64)        0         
_________________________________________________________________
average_pooling2d (AveragePo (None, 3, 3, 64)          0         
_________________________________________________________________
flatten (Flatten)            (None, 576)               0         
_________________________________________________________________
dense (Dense)                (None, 10)                5770      
=================================================================
Total params: 1,192,778
Trainable params: 1,190,346
Non-trainable params: 2,432
_________________________________________________________________
Epoch 1/80
429/430 [============================>.] - ETA: 0s - loss: 1.2564 - acc: 0.6293Epoch 1/80
10000/430 [=====================================================================
…
