…
/usr/local/lib/python3.6/dist-packages/ipykernel_launcher.py:85: UserWarning: Update your `MaxPooling2D` call to the Keras 2 API: `MaxPooling2D(pool_size=(3, 3), strides=(1, 1), name="inception_4_/pool", padding="same")`
/usr/local/lib/python3.6/dist-packages/ipykernel_launcher.py:87: UserWarning: Update your `Conv2D` call to the Keras 2 API: `Conv2D(64, (1, 1), activation="relu", name="inception_4_/pool_proj", padding="same", kernel_regularizer=<keras.reg...)`
Model: "model_1"
__________________________________________________________________________________________________
Layer (type)                    Output Shape         Param #     Connected to                     
==================================================================================================
input (InputLayer)              (None, 32, 32, 3)    0                                            
__________________________________________________________________________________________________
inception_1_/3x3_reduce (Conv2D (None, 32, 32, 96)   384         input[0][0]                      
__________________________________________________________________________________________________
inception_1_/5x5_reduce (Conv2D (None, 32, 32, 16)   64          input[0][0]                      
__________________________________________________________________________________________________
inception_1_/pool (MaxPooling2D (None, 32, 32, 3)    0           input[0][0]                      
__________________________________________________________________________________________________
inception_1_/1x1 (Conv2D)       (None, 32, 32, 64)   256         input[0][0]                      
__________________________________________________________________________________________________
inception_1_/3x3 (Conv2D)       (None, 32, 32, 128)  110720      inception_1_/3x3_reduce[0][0]    
__________________________________________________________________________________________________
inception_1_/5x5 (Conv2D)       (None, 32, 32, 32)   12832       inception_1_/5x5_reduce[0][0]    
__________________________________________________________________________________________________
inception_1_/pool_proj (Conv2D) (None, 32, 32, 32)   128         inception_1_/pool[0][0]          
__________________________________________________________________________________________________
inception_1_/output (Concatenat (None, 32, 32, 256)  0           inception_1_/1x1[0][0]           
                                                                 inception_1_/3x3[0][0]           
                                                                 inception_1_/5x5[0][0]           
                                                                 inception_1_/pool_proj[0][0]     
__________________________________________________________________________________________________
inception_1_/output_norm (Batch (None, 32, 32, 256)  1024        inception_1_/output[0][0]        
__________________________________________________________________________________________________
inception_1_2x2subsample (MaxPo (None, 16, 16, 256)  0           inception_1_/output_norm[0][0]   
__________________________________________________________________________________________________
inception_2_/3x3_reduce (Conv2D (None, 16, 16, 128)  32896       inception_1_2x2subsample[0][0]   
__________________________________________________________________________________________________
inception_2_/5x5_reduce (Conv2D (None, 16, 16, 32)   8224        inception_1_2x2subsample[0][0]   
__________________________________________________________________________________________________
inception_2_/pool (MaxPooling2D (None, 16, 16, 256)  0           inception_1_2x2subsample[0][0]   
__________________________________________________________________________________________________
inception_2_/1x1 (Conv2D)       (None, 16, 16, 128)  32896       inception_1_2x2subsample[0][0]   
__________________________________________________________________________________________________
inception_2_/3x3 (Conv2D)       (None, 16, 16, 192)  221376      inception_2_/3x3_reduce[0][0]    
__________________________________________________________________________________________________
inception_2_/5x5 (Conv2D)       (None, 16, 16, 96)   76896       inception_2_/5x5_reduce[0][0]    
__________________________________________________________________________________________________
inception_2_/pool_proj (Conv2D) (None, 16, 16, 64)   16448       inception_2_/pool[0][0]          
__________________________________________________________________________________________________
inception_2_/output (Concatenat (None, 16, 16, 480)  0           inception_2_/1x1[0][0]           
                                                                 inception_2_/3x3[0][0]           
                                                                 inception_2_/5x5[0][0]           
                                                                 inception_2_/pool_proj[0][0]     
__________________________________________________________________________________________________
inception_2_/output_norm (Batch (None, 16, 16, 480)  1920        inception_2_/output[0][0]        
__________________________________________________________________________________________________
inception_2_2x2subsample (MaxPo (None, 8, 8, 480)    0           inception_2_/output_norm[0][0]   
__________________________________________________________________________________________________
inception_3_/3x3_reduce (Conv2D (None, 8, 8, 96)     46176       inception_2_2x2subsample[0][0]   
__________________________________________________________________________________________________
inception_3_/5x5_reduce (Conv2D (None, 8, 8, 16)     7696        inception_2_2x2subsample[0][0]   
__________________________________________________________________________________________________
inception_3_/pool (MaxPooling2D (None, 8, 8, 480)    0           inception_2_2x2subsample[0][0]   
__________________________________________________________________________________________________
inception_3_/1x1 (Conv2D)       (None, 8, 8, 192)    92352       inception_2_2x2subsample[0][0]   
__________________________________________________________________________________________________
inception_3_/3x3 (Conv2D)       (None, 8, 8, 208)    179920      inception_3_/3x3_reduce[0][0]    
__________________________________________________________________________________________________
inception_3_/5x5 (Conv2D)       (None, 8, 8, 48)     19248       inception_3_/5x5_reduce[0][0]    
__________________________________________________________________________________________________
inception_3_/pool_proj (Conv2D) (None, 8, 8, 64)     30784       inception_3_/pool[0][0]          
__________________________________________________________________________________________________
inception_3_/output (Concatenat (None, 8, 8, 512)    0           inception_3_/1x1[0][0]           
                                                                 inception_3_/3x3[0][0]           
                                                                 inception_3_/5x5[0][0]           
                                                                 inception_3_/pool_proj[0][0]     
__________________________________________________________________________________________________
inception_3_/output_norm (Batch (None, 8, 8, 512)    2048        inception_3_/output[0][0]        
__________________________________________________________________________________________________
inception_3_2x2subsample (MaxPo (None, 4, 4, 512)    0           inception_3_/output_norm[0][0]   
__________________________________________________________________________________________________
inception_4_/3x3_reduce (Conv2D (None, 4, 4, 112)    57456       inception_3_2x2subsample[0][0]   
__________________________________________________________________________________________________
inception_4_/5x5_reduce (Conv2D (None, 4, 4, 24)     12312       inception_3_2x2subsample[0][0]   
__________________________________________________________________________________________________
inception_4_/pool (MaxPooling2D (None, 4, 4, 512)    0           inception_3_2x2subsample[0][0]   
__________________________________________________________________________________________________
inception_4_/1x1 (Conv2D)       (None, 4, 4, 160)    82080       inception_3_2x2subsample[0][0]   
__________________________________________________________________________________________________
inception_4_/3x3 (Conv2D)       (None, 4, 4, 224)    226016      inception_4_/3x3_reduce[0][0]    
__________________________________________________________________________________________________
inception_4_/5x5 (Conv2D)       (None, 4, 4, 64)     38464       inception_4_/5x5_reduce[0][0]    
__________________________________________________________________________________________________
inception_4_/pool_proj (Conv2D) (None, 4, 4, 64)     32832       inception_4_/pool[0][0]          
__________________________________________________________________________________________________
inception_4_/output (Concatenat (None, 4, 4, 512)    0           inception_4_/1x1[0][0]           
                                                                 inception_4_/3x3[0][0]           
                                                                 inception_4_/5x5[0][0]           
                                                                 inception_4_/pool_proj[0][0]     
__________________________________________________________________________________________________
inception_4_/output_norm (Batch (None, 4, 4, 512)    2048        inception_4_/output[0][0]        
__________________________________________________________________________________________________
inception_4_2x2subsample (MaxPo (None, 2, 2, 512)    0           inception_4_/output_norm[0][0]   
__________________________________________________________________________________________________
average_pooling2d_1 (AveragePoo (None, 1, 1, 512)    0           inception_4_2x2subsample[0][0]   
__________________________________________________________________________________________________
flatten_1 (Flatten)             (None, 512)          0           average_pooling2d_1[0][0]        
__________________________________________________________________________________________________
dense_1_128 (Dense)             (None, 128)          65664       flatten_1[0][0]                  
__________________________________________________________________________________________________
dense_1_128drop (Dropout)       (None, 128)          0           dense_1_128[0][0]                
__________________________________________________________________________________________________
dense_1_128norm (BatchNormaliza (None, 128)          512         dense_1_128drop[0][0]            
__________________________________________________________________________________________________
dense_2_64 (Dense)              (None, 64)           8256        dense_1_128norm[0][0]            
__________________________________________________________________________________________________
dense_2_64drop (Dropout)        (None, 64)           0           dense_2_64[0][0]                 
__________________________________________________________________________________________________
dense_2_64norm (BatchNormalizat (None, 64)           256         dense_2_64drop[0][0]             
__________________________________________________________________________________________________
dense_1 (Dense)                 (None, 10)           650         dense_2_64norm[0][0]             
==================================================================================================
Total params: 1,420,834
Trainable params: 1,416,930
Non-trainable params: 3,904
__________________________________________________________________________________________________
Saved model to../models/cifar10-nrcrt7-04:40PM_May-08-2020.json

WARNING:tensorflow:From /tensorflow-1.15.2/python3.6/tensorflow_core/python/ops/math_grad.py:1424: where (from tensorflow.python.ops.array_ops) is deprecated and will be removed in a future version.
…
