Model: "sequential_1"
_________________________________________________________________
Layer (type)                 Output Shape              Param #   
=================================================================
conv2d_14 (Conv2D)           (None, 30, 30, 128)       3584      
_________________________________________________________________
resnet_identity_block_6 (Res (None, 30, 30, 128)       296192    
_________________________________________________________________
resnet_identity_block_7 (Res (None, 30, 30, 128)       296192    
_________________________________________________________________
resnet_identity_block_8 (Res (None, 30, 30, 128)       296192    
_________________________________________________________________
conv2d_21 (Conv2D)           (None, 30, 30, 64)        73792     
_________________________________________________________________
resnet_identity_block_9 (Res (None, 30, 30, 64)        74368     
_________________________________________________________________
resnet_identity_block_10 (Re (None, 30, 30, 64)        74368     
_________________________________________________________________
resnet_identity_block_11 (Re (None, 30, 30, 64)        74368     
_________________________________________________________________
batch_normalization_25 (Batc (None, 30, 30, 64)        256       
_________________________________________________________________
activation_1 (Activation)    (None, 30, 30, 64)        0         
_________________________________________________________________
average_pooling2d_1 (Average (None, 3, 3, 64)          0         
_________________________________________________________________
flatten_1 (Flatten)          (None, 576)               0         
_________________________________________________________________
dense_1 (Dense)              (None, 10)                5770      
=================================================================
Total params: 1,195,082
Trainable params: 1,192,650
Non-trainable params: 2,432
_________________________________________________________________
Epoch 1/80
390/391 [============================>.] - ETA: 0s - loss: 1.6970 - acc: 0.3847Epoch 1/80
10000/391 [=====================================================================
…
